generator_trained.pth (torch, 259225 bytes, 8 tensors)

hidden.weight f4 [128, 100]
0	0xbc73e759	-0.014886701
1	0x3d51bc95	0.051205236
2	0x3d57eb88	0.052714854
3	0xbc2c7028	-0.010524787
4	0xbd1e5112	-0.038651533
5	0x3dabc0f7	0.083864145
6	0xbd992456	-0.07477634
7	0x3cc83e00	0.024443626
8	0xbc8d65cd	-0.017260456
9	0xbd09d4bc	-0.033650145
10	0x3cccb12c	0.024986826
11	0x3c98faa7	0.018674208
12	0x3d45a164	0.048249617
13	0xbc92d169	-0.01792212
14	0xbd933c9e	-0.07189296
15	0x3d733f0a	0.05938629
16	0xbda2b012	-0.07943739
17	0x3cccf202	0.025017742
18	0xbd7ec75e	-0.06220185
19	0x3d27992e	0.040917568
20	0xbca54ee8	-0.020179227
21	0x3be4a160	0.006977245
22	0x3d6f2dbd	0.05839323
23	0x3d46c60d	0.04852872
24	0x3d74a9d8	0.059732288
25	0xbd9e235e	-0.077215895
26	0xbd3e2397	-0.04642066
27	0x3d8e4c47	0.069481425
28	0xbd13ef5e	-0.03611695
29	0xbc6a8eae	-0.014316244
30	0x3ced5faf	0.02897629
31	0xbda5f747	-0.08103805
32	0xbd4453c9	-0.047931466
33	0xbd8ac51c	-0.06775877
34	0xbd8535d5	-0.06504408
35	0x3d38125f	0.044939395
36	0xbcfbbbea	-0.030729253
37	0xbb4af7a7	-0.0030970366
38	0x3d7f5e66	0.062345885
39	0xbd1ae9d1	-0.03782064
40	0x3d18b225	0.037279267
41	0xbd40128a	-0.04689268
42	0x3d87f48f	0.06638443
43	0x3ca2df32	0.019881818
44	0xbdc7c317	-0.09754007
45	0x3bf4d83a	0.0074720653
46	0xbd76a32e	-0.060214214
47	0xbd29415d	-0.0413221
48	0x3d123a7f	0.035700317
49	0xbd39a00f	-0.04531866
50	0xbcaac0f9	-0.02084397
51	0x3d55f1ad	0.052232433
52	0x3dae9837	0.085251264
53	0x3d38e73b	0.045142394
54	0xbd840c48	-0.06447655
55	0xbc8521a1	-0.016251387
56	0xbda69146	-0.081331775
57	0xbb729139	-0.003701283
58	0xbd07e048	-0.033172876
59	0x3d5b12c6	0.0534847
60	0x3dd001c8	0.1015659
61	0xbcc43495	-0.023950854
62	0x3cd3ffa7	0.02587874
63	0x3d6bc26b	0.05755846
64	0x3be9f587	0.007139865
65	0xbd5b3df4	-0.05352588
66	0x3d5a69de	0.05332362
67	0xbd5177f0	-0.051139772
68	0x3d5ac45b	0.053409915
69	0xbdae8b6b	-0.085226856
70	0xbd1fe51f	-0.039036866
71	0x3d7b8a89	0.061411414
72	0xbcf4f3bc	-0.029901378
73	0xbd8c163d	-0.06840179
74	0x3db20ecc	0.086942285
75	0xbd052e93	-0.03251512
76	0xbcb3b74b	-0.021937987
77	0x3daaf6ac	0.0834783
78	0xbd919335	-0.07108156
79	0x3dba8c9e	0.09108852
80	0xbc833384	-0.016015776
81	0x3dad8d61	0.084742315
82	0x3c89e744	0.016833909
83	0x3d9b9418	0.07596606
84	0xbd469d91	-0.04849011
85	0x3d36f6b1	0.044668857
86	0x3cd94f50	0.026527077
87	0xbc9ade1b	-0.018904736
88	0xbdbd0470	-0.09229362
89	0xbcdaeb27	-0.026723458
90	0xbca133ea	-0.019678075
91	0xbd8cd232	-0.06876029
92	0x3c3bda6d	0.011465651
93	0xbc6ee359	-0.014580571
94	0xbd2028ee	-0.039101534
95	0x3c8c1e86	0.017104398
96	0xbb9fd3b1	-0.0048775305
97	0x3d8f012d	0.06982646
98	0x3da53609	0.08066947
99	0x3ca2b928	0.01986368
100	0x3cfae26b	0.030625543
101	0x3d06a236	0.03286954
102	0x3cd3c362	0.025850002
103	0xbd73f03c	-0.059555277
104	0x3da064ec	0.07831749
105	0x3c47bfd9	0.012191736
106	0x3cb11e51	0.021620901
107	0xbd963d92	-0.07335962
108	0xbd6a0908	-0.05713752
109	0xbd2c7bcf	-0.04211026
110	0xbd0c5f09	-0.03427032
111	0x3d9dd0b1	0.0770582
112	0x3d5a9c89	0.05337194
113	0x3d2b68d2	0.04184801
114	0x3dc76dfb	0.09737774
115	0xbcb93aa4	-0.02261097
116	0x3d9e7add	0.07738278
117	0xbd012bbd	-0.031535853
118	0x3d237264	0.039904013
119	0xbce06b1a	-0.02739482
120	0xbd4427a6	-0.047889374
121	0xbd6434d5	-0.055714447
122	0xbab627d8	-0.0013897372
123	0xbd331ad1	-0.043726746
124	0x3d61e5db	0.055150848
125	0xbda4a0a3	-0.080384515
126	0xbc7990b9	-0.0152322585
127	0x3d3eb08a	0.04655508
128	0x3d7296e5	0.059225935
129	0x3cf56dc4	0.029959567
130	0x3d010d42	0.031506784
131	0xbd1adf22	-0.037810452
132	0x3daec5dd	0.08533833
133	0xbd5df16e	-0.054185323
134	0x3d9f4ac8	0.07777935
135	0x3bb9550a	0.0056558894
136	0x3dac2df7	0.084072046
137	0x3d141d45	0.036160726
138	0xbb9f4774	-0.004860813
139	0x399c4f92	0.00029813923
140	0xbcbbb98b	-0.022915622
141	0xbd14aa13	-0.036295008
142	0xbd66ff4d	-0.056395818
143	0x3d72bd5b	0.059262615
144	0x3ca36ada	0.019948412
145	0x3d718ff0	0.05897516
146	0xbc1bc01b	-0.009506251
147	0x3d06f26f	0.032946046
148	0xbcb2e977	-0.02183984
149	0xbc0291ac	-0.007969301
150	0xbd082071	-0.033234064
151	0x3af32b6a	0.0018552367
152	0x3d4aad05	0.04948141
153	0x3cad2bec	0.021139108
154	0xbd9e4efd	-0.077299096
155	0x3d7edca3	0.062222134
156	0x3d3d0d2e	0.046155147
157	0x3d247791	0.04015309
158	0xbd3736dc	-0.044730052
159	0x3c539fd8	0.012916528
160	0x3c17f8a7	0.009275592
161	0x3d625a21	0.055261735
162	0xbd9ae260	-0.07562709
163	0xbd5c014c	-0.053712174
164	0x3b3d8a90	0.00289217
165	0x3d733e0b	0.05938534
166	0x3ce0ddf3	0.027449584
167	0x3b927b45	0.0044702613
168	0x3dcd7023	0.10031154
169	0x3c30abd9	0.010783159
170	0x3c47b5f3	0.012189376
171	0x3d717bc2	0.058955915
172	0xbd2ce0c4	-0.04220654
173	0x3d44aaec	0.048014566
174	0xbd75b788	-0.059989482
175	0xbc070756	-0.008241495
176	0x3d46d0c8	0.048538953
177	0x3c9f928e	0.019479062
178	0xbcadc54a	-0.021212239
179	0xbd775d07	-0.060391452
180	0x3d611f97	0.054961767
181	0x3d160e1b	0.036634546
182	0x3d2f8b68	0.042857558
183	0x3ca1e162	0.019760791
184	0x3cd44e3e	0.025916215
185	0x3d921cd1	0.071344025
186	0x3c470533	0.012147236
187	0x3cf95e11	0.030440362
188	0xbd63a6c1	-0.05557895
189	0xbca350dc	-0.019936018
190	0x3c1cb0b4	0.009563614
191	0xbaebbd37	-0.0017985468
192	0x3d3c3f40	0.045958757
193	0xbd6890d7	-0.056778755
194	0xbd4cb65d	-0.049978603
195	0xbdaa5837	-0.08317607
196	0xbc575f39	-0.013145261
197	0xbda74f2d	-0.081693985
198	0x3d964d7d	0.073389985
199	0xbb520e9f	-0.0032052172
200	0x3d160607	0.036626842
201	0xbd830824	-0.06398037
202	0xbd321919	-0.043480966
203	0x3c9a0f6f	0.018806187
204	0x3d1242bf	0.035708185
205	0xbd66eba4	-0.05637707
206	0x3c1d882e	0.009614987
207	0x3c9e8080	0.019348383
208	0x3c0429e9	0.008066633
209	0x3d9ac2be	0.075566754
210	0x3cb9c3d9	0.022676395
211	0x3c1ef433	0.009701776
212	0xbb0e2f23	-0.0021695576
213	0x3c746de4	0.014918778
214	0xbd17fe7a	-0.037107922
215	0x3ce301ad	0.02771076
216	0xbc76d53e	-0.015065489
217	0x3d2cce18	0.042188734
218	0xbd76341c	-0.06010829
219	0xbd8d195e	-0.06889604
220	0x3ca3ee0e	0.020010974
221	0x3d887986	0.06663804
222	0x3d04713e	0.03233456
223	0x3d059804	0.032615677
224	0x3cebab12	0.028768096
225	0x3c3ad56f	0.011403426
226	0x3c362583	0.011117342
227	0x3bc7596a	0.006083657
228	0x3b052684	0.0020317147
229	0xbd1e4ebb	-0.038649302
230	0x3c7a7828	0.015287437
231	0x3c9e2b53	0.019307768
232	0x3d677d00	0.056515694
233	0xbc548d29	-0.012973108
234	0x3c8f06ea	0.017459352
235	0xbce2b9da	-0.027676512
236	0x3d833bf0	0.064079165
237	0xbc9fb83e	-0.019497033
238	0x3d3a313c	0.04545711
239	0x3cf4b9a4	0.029873677
240	0x3abb7236	0.0014301005
241	0xbd580f29	-0.052748833
242	0x38a19dd8	7.706479e-05
243	0x3b5fe150	0.0034161396
244	0x3d010b7f	0.031505104
245	0xbc07377e	-0.008252976
246	0xbca58bdf	-0.020208297
247	0xbc9a2589	-0.018816726
248	0xbcc2f03c	-0.023796193
249	0xbd429a1e	-0.04751026
250	0xbd57a188	-0.052644283
251	0xbd23c62b	-0.03998391
252	0x3d226b2e	0.039652996
253	0x3d83e9e9	0.06441099
254	0xbd6bc5e2	-0.057561763
255	0xbc0704a8	-0.008240856

hidden.bias f4 [128]
0	0xbe4300ab	-0.19043224
1	0xbed14a3f	-0.40876958
2	0x3ed318f3	0.41229972
3	0x3ec85504	0.39127362
4	0xbe33a1a4	-0.1754213
5	0xbd451db8	-0.048124045
6	0x3f14f3e4	0.5818465
7	0x3edd56bc	0.43230236
8	0x3efae49d	0.49002543
9	0xbed2a473	-0.4114109
10	0xbef620c8	-0.48071885
11	0xbe5b5aa9	-0.21421303
12	0xbed1f98b	-0.410107
13	0xbef345b5	-0.4751412
14	0xbdd7b2a9	-0.105321236
15	0xbf0568ce	-0.52113044
16	0x3dbadc2e	0.09124027
17	0xbea0de5b	-0.31419644
18	0x3eb475b0	0.35246038
19	0xbf065130	-0.5246763
20	0xbf0425c6	-0.5162014
21	0xbefa96e6	-0.4894325
22	0x3f1b62ec	0.6069782
23	0x3f12b344	0.5730479
24	0xbe4c9abb	-0.199809
25	0x3e606eb3	0.21917228
26	0xbf39b2a4	-0.7253821
27	0x3ec105ac	0.3769964
28	0x3f2b6e58	0.66965246
29	0x3f2c7191	0.6736079
30	0x3ef3710f	0.47547194
31	0xbf0a91d2	-0.54128754
32	0xbf2fcdcf	-0.68673414
33	0xbdc3408f	-0.09533798
34	0xbf149f82	-0.5805589
35	0xbe97b2db	-0.29628643
36	0x3e1d3e86	0.15355882
37	0x3f0def5b	0.5544335
38	0xbea4eeb8	-0.32213378
39	0xbc0306e3	-0.007997247
40	0xbf065753	-0.52476996
41	0xbe8d56f6	-0.27605408
42	0x3f3b4d75	0.73165065
43	0xbf3166fb	-0.6929776
44	0x3e6229ac	0.22086209
45	0xbe920f58	-0.2852733
46	0x3f366b32	0.7125732
47	0xbf02ad68	-0.51045847
48	0x3e868b65	0.26278225
49	0xbf2a5a26	-0.66543806
50	0xb9fb9be6	-0.00047990604
51	0x3b56fdd4	0.0032805102
52	0x3ee03153	0.4378763
53	0xbf134bac	-0.5753734
54	0x3e10acbc	0.14128393
55	0x3edeff29	0.43554047
56	0x3ec2cabd	0.38045302
57	0xbcce4612	-0.025179897
58	0xbdedf684	-0.11619285
59	0x3f3467a2	0.7047063
60	0x3f022f4e	0.5085343
61	0xbe088468	-0.13331759
62	0xbc8de046	-0.017318856
63	0xbea07482	-0.31338888
64	0xbb850163	-0.004059003
65	0x3ecb7fc3	0.39745912
66	0x3ec7f6a2	0.39055353
67	0xbf01b4b0	-0.5066633
68	0xbf078d64	-0.5295012
69	0xbe272412	-0.16322353
70	0x3f2fd90a	0.6869055
71	0xbe8dd3af	-0.27700564
72	0xbf173bc5	-0.59075576
73	0xbf1d7ad0	-0.6151552
74	0xbe76780e	-0.24069235
75	0x3efbb12c	0.4915861
76	0xbf05047b	-0.5195996
77	0xbee00e31	-0.43760827
78	0xbdd779f2	-0.10521306
79	0x3e7dde7d	0.24791904
80	0xbf0c5c57	-0.548284
81	0xbf2c18c7	-0.6722531
82	0x3ea64d5a	0.3248089
83	0xbea1a6b3	-0.31572494
84	0x3eaa003e	0.3320331
85	0x3e345fdb	0.17614691
86	0xbd8782a1	-0.06616712
87	0xbee1f776	-0.4413411
88	0xbe791852	-0.24325684
89	0x3ef18615	0.4717261
90	0xbeba657a	-0.36405545
91	0x3e817d46	0.2529089
92	0xbe8dc94d	-0.27692643
93	0xbed5ee73	-0.41783485
94	0xbe9e1af6	-0.30879945
95	0x3efc950c	0.49332464
96	0xbea64645	-0.32475486
97	0x3f09e552	0.5386554
98	0x3ed4ab06	0.4153673
99	0xbe927b15	-0.2860953
100	0x3d022be1	0.031780127
101	0x3e52d940	0.20590687
102	0xbe8871dd	-0.2664937
103	0x3eec521a	0.4615639
104	0x3e8c9def	0.27464244
105	0xbe1c9382	-0.15290645
106	0xbec2dd97	-0.38059685
107	0xbe706f21	-0.23479892
108	0x3f3b8a4f	0.7325792
109	0xbe56daaf	-0.20981859
110	0x3d43b767	0.047782328
111	0xbf2a9b3c	-0.6664312
112	0xbf37d06b	-0.71802396
113	0xbef954fc	-0.4869765
114	0xbf141bb2	-0.5785476
115	0x3e865759	0.26238516
116	0x3ec2a4e8	0.38016438
117	0xbe384e6f	-0.1799867
118	0xbf1b4651	-0.6065417
119	0x3e8030b9	0.25037172
120	0xbe456f15	-0.19280656
121	0xbeff870e	-0.49907726
122	0x3ec8fa84	0.39253628
123	0xbf3615da	-0.7112709
124	0xbe878ee0	-0.26476192
125	0x3e8dbe56	0.27684277
126	0xbec97d3f	-0.39353368
127	0x3f314721	0.6924916

gru.weight_ih_l0 f4 [384, 2]
0	0x3e2e431a	0.17017785
1	0x3dd6bf05	0.10485653
2	0x3dc957a1	0.09831167
3	0x3e3ea333	0.18616943
4	0x3bfbd45e	0.0076852283
5	0xbc77930a	-0.01511074
6	0x3df08956	0.11744945
7	0x3cecffb7	0.028930528
8	0x3ad712c7	0.0016408794
9	0xbc50ccb1	-0.012744115
10	0x3dac3693	0.08408847
11	0xbc6d1803	-0.014471057
12	0x3dedff86	0.11621003
13	0x3c6276a0	0.013822228
14	0xbdc333b2	-0.095313445
15	0x3e389876	0.18026909
16	0x3ded761f	0.115947954
17	0x3b3d9240	0.0028926283
18	0x3e25595a	0.16147366
19	0x3e1c96ba	0.15291873
20	0x3db0f8f3	0.08641233
21	0x3d988cab	0.07448705
22	0xbc57eb8c	-0.013178717
23	0x3e53e4bc	0.20692724
24	0x3dcdbead	0.10046134
25	0x3d27f35b	0.041003566
26	0x3cfe8de6	0.031073522
27	0x3de2516e	0.11050688
28	0x3d98dae3	0.07463624
29	0x3c2bf9b3	0.010496545
30	0x3c59d36b	0.013295035
31	0x3d8aa1a5	0.067691125
32	0x3d5087e3	0.05091084
33	0x3c5dc831	0.013536499
34	0x3d057c83	0.032589447
35	0x3d2fad4e	0.042889886
36	0x3c790f82	0.015201451
37	0x3c5419e9	0.012945631
38	0xbda86d9f	-0.082240336
39	0xbc772620	-0.015084773
40	0x3db755c5	0.08951906
41	0x3dacfaca	0.08446272
42	0x3dcee1d0	0.10101664
43	0x3c6aa628	0.014321841
44	0xbce36e28	-0.027762488
45	0x3d0cc448	0.034366876
46	0x3e17c6a9	0.14821877
47	0x3d27c2e1	0.040957335
48	0x3d4022eb	0.0469083
49	0x3d3daec3	0.046309244
50	0x3d7f126c	0.062273428
51	0xbc036dce	-0.008021785
52	0x3accf0ab	0.001563569
53	0x3d63cb17	0.055613603
54	0x3e251dca	0.16124645
55	0x3daf0643	0.08546116
56	0x3c91760d	0.017756486
57	0x3de08e03	0.109645866
58	0xbd82a20b	-0.063785635
59	0x3dd6f1f2	0.10495366
60	0xbe27d140	-0.16388416
61	0x3d91fee2	0.07128693
62	0x3dc34650	0.095348954
63	0x3b8cfdf2	0.0043027336
64	0x3e0db2aa	0.13837686
65	0x3d475805	0.048667926
66	0x3de25afb	0.110525094
67	0x3dfae7e0	0.12251258
68	0xbcc6947e	-0.024240728
69	0xbc1abdc9	-0.009444662
70	0xbc18f48a	-0.009335646
71	0x3d0186b6	0.03162261
72	0xbc0b4b87	-0.008501894
73	0x3c5b0e1b	0.013370062
74	0x3e2bba7a	0.16770354
75	0x3d265d59	0.040616367
76	0x3e092a6f	0.13395093
77	0xbb0e465e	-0.0021709423
78	0x3e1313c0	0.14363003
79	0x3e24816b	0.16064994
80	0x3c5833b8	0.013195924
81	0xbb324959	-0.0027204363
82	0x3e250954	0.1611684
83	0x3d8b611a	0.0680563
84	0xbdd19ca5	-0.10234956
85	0x3d197e79	0.03747413
86	0x3cb087d5	0.021549145
87	0x3dfab26c	0.122410625
88	0x3cb56765	0.022144029
89	0xbc4e4749	-0.012590238
90	0x3cd2c9a9	0.025730925
91	0xbba9b509	-0.005179052
92	0xbdb6f558	-0.08933514
93	0x3dd0b6f3	0.10191145
94	0x3dc219a9	0.094775505
95	0xbdcceec5	-0.10006479
96	0x3e034602	0.12819675
97	0x3e7e6263	0.24842219
98	0x3bca057e	0.0061652055
99	0x3dea6beb	0.11446365
100	0x3e492923	0.19644599
101	0x3e5af7b2	0.21383551
102	0x3e8b1905	0.27167526
103	0x3e62e092	0.2215598
104	0x3cefac99	0.029257106
105	0x3c91420b	0.017731687
106	0x3dd2065e	0.10255121
107	0x3dd18238	0.102299154
108	0x3d72fe6d	0.05932467
109	0x3dd5682a	0.10420258
110	0x3e33a825	0.17544611
111	0x3d8f1d9a	0.06988068
112	0x3e0e1da5	0.13878496
113	0xbba119a3	-0.004916386
114	0x3cc75181	0.024330856
115	0x3e404786	0.18777284
116	0x3e2c38fe	0.16818616
117	0xbd5e4111	-0.05426127
118	0x3ddbda85	0.10735039
119	0xbd0be8a2	-0.034157403
120	0x3ba783b7	0.005112137
121	0x3dcd05de	0.10010885
122	0x3e0c18fc	0.13681406
123	0xbb598a59	-0.0033194034
124	0x3e0fe666	0.14052734
125	0x3e15972c	0.14608449
126	0xbc1dd862	-0.009634109
127	0xbd021ffb	-0.03176878
128	0xbdad3b93	-0.084586285
129	0xbd9fafcc	-0.077972025
130	0xbc13ce1e	-0.00902131
131	0xba97de47	-0.001158663
132	0x3e0a884f	0.1352856
133	0x3d2dac78	0.042400807
134	0x3e0c8c95	0.13725503
135	0xb906a61f	-0.00012841121
136	0x3e035454	0.12825137
137	0x3d989e06	0.074520156
138	0xbbeaccdd	-0.007165535
139	0x3e128e98	0.14312208
140	0x3e2b7f2d	0.16747732
141	0x3d678691	0.056524817
142	0x3c99b7ce	0.018764403
143	0xbcbd8e05	-0.02313901
144	0x3d684422	0.0567056
145	0x3d31a0a5	0.043366093
146	0x3df84e50	0.12124312
147	0x3b675fb8	0.0035304856
148	0x3c966c0e	0.018362071
149	0xbcd1bfdd	-0.025604183
150	0x3df17a52	0.11790909
151	0x3e2629fb	0.16226952
152	0x3da05b11	0.078298695
153	0x3e2fddcd	0.17174454
154	0x3d224a9b	0.03962193
155	0xbd2735bf	-0.04082274
156	0x3e59d9f7	0.21274553
157	0x3e96d009	0.29455593
158	0x3d6469be	0.055764906
159	0x3d513b62	0.051082022
160	0x3e092319	0.13392295
161	0x3d2a7010	0.041610777
162	0x3d63c39e	0.055606477
163	0xbd1c95df	-0.038228866
164	0x3e1bf297	0.1522926
165	0x3dbeb5d0	0.09312022
166	0xbd363554	-0.04448445
167	0xbd756bc8	-0.05991724
168	0x3e0491d8	0.1294626
169	0xbd39719a	-0.045274355
170	0x3d258227	0.040407326
171	0x3dceece0	0.10103774
172	0xbd34b12e	-0.044114284
173	0x3dd189d0	0.10231364
174	0x3da5555a	0.0807292
175	0x3e312fb7	0.17303358
176	0xbdbb32aa	-0.09140523
177	0x3d9ebf68	0.077513516
178	0x3da57793	0.080794476
179	0xbd0d18e2	-0.03444756
180	0x3df76db1	0.12081469
181	0x3c14fc43	0.009093347
182	0x3d44d7f2	0.048057504
183	0x3dae56f2	0.08512677
184	0x3d54a123	0.051911484
185	0x3d3d85f1	0.046270315
186	0x3d52ebce	0.051494412
187	0x3d2b06c4	0.0417545
188	0x3ed0ba8c	0.40767324
189	0x3e558a5c	0.20853561
190	0x3dfb6443	0.12274983
191	0x3e11b544	0.14229304
192	0x3d242cc9	0.040081773
193	0x3c13b175	0.009014477
194	0xbba026eb	-0.004887452
195	0x3d9202b7	0.07129424
196	0x3d4fe562	0.050755866
197	0x3d39e755	0.04538663
198	0x3e09b5ee	0.13448307
199	0x3c79183f	0.015203535
200	0xbe007ce8	-0.12547648
201	0x3c0ab8b0	0.0084668845
202	0x3e5de606	0.21669778
203	0xbcd8544b	-0.026407382
204	0x3e2eacf2	0.17058161
205	0x3d87484d	0.06605587
206	0x3ddf179b	0.10893174
207	0x3ddabb8f	0.10680305
208	0x3c2a8fdd	0.010410276
209	0x3cf16a25	0.029469559
210	0x3dd75a3f	0.1051526
211	0x3d360f06	0.04444792
212	0x3c8a1450	0.016855389
213	0xbbe5398a	-0.0069953846
214	0x3d930d95	0.07180325
215	0x3cd741be	0.026276466
216	0x3e12d478	0.14338863
217	0xbde20ee4	-0.110379964
218	0xbdd08bff	-0.10182952
219	0x3d972e68	0.07381898
220	0xbd0cf4b5	-0.03441306
221	0xbbc027ac	-0.0058641043
222	0x3e0e93b5	0.13923533
223	0xbe119957	-0.14218651
224	0xbbc1ed83	-0.005918206
225	0x3d621c09	0.055202518
226	0x3da4d46e	0.0804833
227	0x3e28ec09	0.1649629
228	0x3e1830ee	0.14862415
229	0x3e13544e	0.14387628
230	0xbd233438	-0.03984472
231	0xbd441bf7	-0.04787823
232	0xbc42dc44	-0.011893336
233	0x3d976f4d	0.07394276
234	0x3daede6a	0.08538516
235	0x3da02303	0.07819178
236	0x3dbcf3a7	0.092261605
237	0xbda5af02	-0.08090021
238	0x3e0f5b3d	0.13999648
239	0x3e822341	0.25417522
240	0x3da73962	0.08165242
241	0x3d88975e	0.06669496
242	0xbe1988b9	-0.14993562
243	0x3c94ad6c	0.0181491
244	0x3e2f5b42	0.17124656
245	0x3d038f42	0.032119043
246	0x3e12d11a	0.14337578
247	0x3d8e98ba	0.06962724
248	0xbda5e545	-0.0810037
249	0x3d1a3989	0.037652526
250	0x3dc33723	0.09532001
251	0x3e044425	0.1291662
252	0x3a23d70a	0.000625
253	0x3d878f2b	0.06619104
254	0x3e574b4e	0.2102482
255	0xbce41f9b	-0.027847102

gru.weight_hh_l0 f4 [384, 128]
0	0x3e53a0e8	0.2066685
1	0xbe021cb3	-0.1270626
2	0x3b4f46ca	0.0031627887
3	0x3e000619	0.12502326
4	0x3e61d48d	0.22053738
5	0xbc3e06e1	-0.01159832
6	0xbde0a55a	-0.10969038
7	0x3dcdcb81	0.10048581
8	0x3dc71f29	0.0972274
9	0xbce1af53	-0.027549421
10	0xbcddd8db	-0.027080944
11	0x3ca4eff6	0.020133954
12	0x3d852527	0.06501227
13	0xbe216173	-0.1575983
14	0x3dd82f75	0.10555927
15	0xbca6ff2b	-0.020385345
16	0x3d86ddc2	0.06585266
17	0x3e14b894	0.14523536
18	0xbd932bb4	-0.0718607
19	0xbde2f44c	-0.11081752
20	0xbd81d469	-0.06339342
21	0xbd2ff3ee	-0.04295724
22	0xbb274144	-0.002552108
23	0xbe09f739	-0.13473214
24	0x3c49908c	0.012302529
25	0xbcae3c27	-0.021268917
26	0x3d9f2944	0.07771543
27	0x3cb44d22	0.022009436
28	0xbc0eb197	-0.008709333
29	0xbd39e5ec	-0.045385286
30	0x3d84baaf	0.064809196
31	0x3c85ebd3	0.016347801
32	0xbcc4640b	-0.023973485
33	0xbd2449a6	-0.0401093
34	0x3d100d5d	0.035168994
35	0xbc476152	-0.012169199
36	0xbe0f60ab	-0.1400172
37	0x3c659aca	0.014013955
38	0xbd720115	-0.059083063
39	0xbc3add7e	-0.011405347
40	0xbdb3572a	-0.087568596
41	0x3c83dd54	0.016096748
42	0xbcbcb4e8	-0.023035482
43	0x3c898eb2	0.016791675
44	0xbe1e5c3f	-0.15464877
45	0x3e32f9c8	0.17478096
46	0x3cec5874	0.028850771
47	0x3e12e5be	0.14345452
48	0x3db80d0c	0.089868635
49	0x3cef0765	0.02917833
50	0xbd3034bf	-0.043019053
51	0xbcd44976	-0.025913935
52	0xbd175e1d	-0.036954988
53	0x3dbd7f57	0.09252804
54	0x3e004db4	0.12529641
55	0x3d176baa	0.03696791
56	0x3d3ea985	0.046548385
57	0x3cdfd111	0.02732137
58	0xbbd982cf	-0.006637908
59	0xbd991912	-0.07475485
60	0x3c2f294a	0.010690996
61	0x3ce30beb	0.027715644
62	0x3c11f423	0.008908304
63	0xbc4379e9	-0.011930921
64	0x3dca999f	0.09892582
65	0xbd9bc8b3	-0.0760664
66	0x3dfaa3ec	0.12238297
67	0xbcf63be6	-0.030057859
68	0xbdcb3c14	-0.09923568
69	0xbdbfae1e	-0.09359382
70	0x3d5ce012	0.053924628
71	0xbc5b2679	-0.013375872
72	0xbdcccd90	-0.100001454
73	0x3ccd689a	0.025074292
74	0x3d39b682	0.04534007
75	0x3d8f66b5	0.07002012
76	0xbd0bfa34	-0.03417416
77	0xbcc07304	-0.023492344
78	0xbdc7aca4	-0.097497255
79	0xbdd6e9ec	-0.10493836
80	0xbd842850	-0.064530015
81	0x3d2f270e	0.042761855
82	0x3d13a9ae	0.03605049
83	0xbdc8ce03	-0.098049186
84	0xbe08c6d8	-0.13357103
85	0xbd645092	-0.0557409
86	0xbdc5f7ea	-0.096664265
87	0xbd7acbdf	-0.061229583
88	0x3d32d523	0.043660294
89	0xbdb1e6f1	-0.08686627
90	0x3e0cee55	0.13762791
91	0xbde9ee5e	-0.11422418
92	0x3e0a7e31	0.135247
93	0xbe212ad8	-0.15739
94	0x3d63ab37	0.055583205
95	0xba4fd97d	-0.00079288316
96	0x3d8b42b6	0.067998335
97	0x3e12ec27	0.14347897
98	0x3e5bc451	0.21461608
99	0xbdcd6331	-0.10028685
100	0x3c2f7c5b	0.010710801
101	0xbe51eb18	-0.20499837
102	0xbd0e7339	-0.034777854
103	0xbbbd2aab	-0.0057729087
104	0x3e0d2ae9	0.137859
105	0xbde6e0dd	-0.11273358
106	0xbd288759	-0.041144703
107	0x3b909a13	0.0044128983
108	0xbdbe4b02	-0.0929165
109	0x3dbbfb47	0.09178787
110	0xbe1ed396	-0.15510401
111	0x3dc37431	0.09543646
112	0xbc515058	-0.012775503
113	0x3d80ef53	0.062956475
114	0xbd3b73b9	-0.04576466
115	0xbdbbf7dc	-0.09178135
116	0xbd5c90f4	-0.053849176
117	0xbd69e21f	-0.05710041
118	0x3b561a58	0.003266951
119	0x3e1604ad	0.14650221
120	0x3e0fabd8	0.14030397
121	0xbcdd01ec	-0.026978455
122	0x3d995346	0.07486586
123	0xbce4f27b	-0.027947655
124	0x3df732c4	0.1207023
125	0x3cf95123	0.030434197
126	0x3c56dcfa	0.013114208
127	0xbddc73ab	-0.107642494
128	0x3da1e458	0.07904881
129	0x3de2c22c	0.110721916
130	0x3d4b28ba	0.049599387
131	0xbc95a181	-0.018265488
132	0xb953879f	-0.00020173051
133	0x3d35194f	0.04421359
134	0x3db19760	0.086714506
135	0x3e0d58d7	0.13803421
136	0x3dd74798	0.10511702
137	0xbc87cd8a	-0.0165775
138	0xbd7276ed	-0.059195448
139	0xbd9a0fba	-0.07522531
140	0x3c7ce15f	0.015434592
141	0x3e6b49fe	0.22977445
142	0xbdc3aba3	-0.095542215
143	0xbd6abf1b	-0.05731116
144	0xbceb6bc3	-0.028737908
145	0xbdeef26e	-0.116673335
146	0x3ddffaae	0.10936485
147	0xbe2862da	-0.16443959
148	0xbd5db9d0	-0.054132283
149	0xbe020b92	-0.12699726
150	0x3d9da89a	0.07698174
151	0x3d5e8aaa	0.05433146
152	0xbd116674	-0.035498098
153	0xbb4d1b53	-0.0031296804
154	0x3d4f6547	0.050633695
155	0xbc58ff4f	-0.013244464
156	0xbc87b3f0	-0.016565293
157	0x3d33b9c6	0.04387834
158	0x3e06bb72	0.13157442
159	0xbe1ef1f2	-0.15521982
160	0xbd121a95	-0.03566988
161	0x3db5a540	0.088694096
162	0xbda72343	-0.081610225
163	0xbc83fc20	-0.016111434
164	0xbca702c7	-0.020387067
165	0xbcbc7a4d	-0.023007536
166	0xbcc94e30	-0.024573416
167	0xbd85aed1	-0.06527484
168	0xbcd42fd8	-0.02590172
169	0xbbb98f54	-0.005662838
170	0x3c70ca4a	0.014696667
171	0xbd64af01	-0.05583096
172	0x3d0bd322	0.0341369
173	0x3d3ef403	0.046619426
174	0x3d9b637f	0.07587337
175	0xbdde9d18	-0.10869807
176	0x3e056a40	0.13028812
177	0xbd248ad8	-0.040171474
178	0xbd879f2d	-0.06622157
179	0x3d32d6ee	0.043662004
180	0xbcc026b3	-0.023455953
181	0x3d0bbcbd	0.03411554
182	0xbdab44ad	-0.08362708
183	0x3d5284a1	0.051396016
184	0x3d0976c7	0.03356054
185	0x3d7db6b3	0.061941814
186	0xbd842453	-0.06452241
187	0x3daf885d	0.08570931
188	0x3cd42a7f	0.02589917
189	0xbbd4ac39	-0.006490257
190	0xbab79c9c	-0.0014008465
191	0x3c726cd7	0.014796457
192	0x3d7e01d4	0.062013462
193	0x3db6371e	0.088972315
194	0xbd75e193	-0.060029577
195	0x3dc14cd8	0.09438485
196	0xbd05698b	-0.032571357
197	0xbc294a01	-0.010332585
198	0x3c5411db	0.01294371
199	0xbd0a6666	-0.03378906
200	0xbd39b236	-0.04533597
201	0xbd0153bf	-0.031574007
202	0xbdd642c8	-0.10461956
203	0xbe060d24	-0.1309095
204	0x3d8c40ed	0.06848321
205	0xbe038c92	-0.12846592
206	0xbd1eb804	-0.03874971
207	0x3e225681	0.15853311
208	0x3dd7d5a6	0.10538797
209	0xbdfe8a47	-0.12428718
210	0x3da7b75b	0.08189269
211	0x3c6dc648	0.014512606
212	0x3e3195a1	0.17342235
213	0x3e0808bf	0.13284586
214	0xbcbd1191	-0.023079665
215	0xbdaa1ab8	-0.083058774
216	0xbd708b95	-0.058726866
217	0x3d293ce8	0.04131785
218	0xbda2279b	-0.079177104
219	0xbd36756b	-0.044545572
220	0xbd84d238	-0.064854085
221	0xba85b833	-0.001020199
222	0x3dc87baa	0.09789212
223	0x3c3c520d	0.011494172
224	0xbd666519	-0.056248758
225	0xbc007470	-0.007840261
226	0xbcd4b425	-0.025964806
227	0xbdc559ab	-0.096362434
228	0x3dafa9c2	0.085773006
229	0xbdbea16b	-0.09308132
230	0xbdf15c03	-0.11785128
231	0x3d4ae868	0.049538046
232	0xbceebeb7	-0.029143674
233	0xbcf82947	-0.03029312
234	0xbd47a3ac	-0.048740074
235	0x3d738e6a	0.05946199
236	0x3dcbc1a4	0.099490434
237	0xbe077020	-0.13226366
238	0x3d10430f	0.035220202
239	0xbdee2298	-0.11627692
240	0xbb67a05f	-0.0035343391
241	0x3d0fa410	0.03506857
242	0xbe3db372	-0.18525484
243	0x3defa0dc	0.11700603
244	0x3da1106a	0.07864459
245	0xbde0cbe6	-0.109763905
246	0x3d8ae121	0.06781221
247	0x3da3284a	0.07966669
248	0xbde10a0c	-0.109882444
249	0xbd9c31c7	-0.07626682
250	0xbde0f684	-0.10984519
251	0xbe06a576	-0.13149056
252	0xbccaae63	-0.024741357
253	0x3dd48f80	0.10378933
254	0xbd4dd769	-0.05025426
255	0x3df05b98	0.1173622

gru.bias_ih_l0 f4 [384]
0	0x3e13913b	0.1441087
1	0x3dd0130c	0.10159883
2	0xbceb1efa	-0.028701294
3	0x3dd808c8	0.1054855
4	0x3ba5e845	0.005063089
5	0x3cab7fe3	0.020935005
6	0xbadef65c	-0.0017010677
7	0x3db3fc8c	0.08788404
8	0x3e13e2f1	0.1444204
9	0x3d2c812a	0.042115368
10	0x3e0325e6	0.12807426
11	0x3d96c931	0.07362593
12	0x3df6df1b	0.12054273
13	0x3e001303	0.12507252
14	0x3e122191	0.14270617
15	0x3dd2c698	0.10291785
16	0x3d68a5b9	0.05679867
17	0x3da0e7a6	0.078566834
18	0x3e1546b5	0.14577754
19	0x3dc00650	0.09376204
20	0x3daefb28	0.08543998
21	0xbc558de6	-0.0130343195
22	0x3d052dad	0.032514263
23	0x3e41a9c9	0.18912424
24	0xbd017bd7	-0.031612244
25	0x3e16c5bd	0.14723869
26	0x3e14ed40	0.14543629
27	0x3e14560d	0.14485951
28	0x3e1c355c	0.1525473
29	0x3e013b4c	0.12620276
30	0xbc91c2c1	-0.017793061
31	0x3c3ccd06	0.011523491
32	0x3df29f8a	0.11846836
33	0x3dd1d118	0.102449596
34	0x3db5c660	0.08875728
35	0x3d4501d5	0.04809745
36	0x3d3f8046	0.04675319
37	0x3e156cd7	0.145923
38	0x3e378830	0.17923045
39	0x3a463f20	0.0007562507
40	0x3c91505f	0.01773852
41	0x3e1ab0a9	0.15106453
42	0xbc3ef18e	-0.011654271
43	0x3e0147b0	0.12625003
44	0x3d0f7986	0.035028003
45	0x3e295992	0.16538075
46	0x3d98da2e	0.074634895
47	0x3e2b256d	0.16713496
48	0x3e3a2c7a	0.18181029
49	0x3e0f387a	0.13986388
50	0x3e780530	0.24220729
51	0x3e1cb01e	0.15301558
52	0x3df943a5	0.12171105
53	0x3d58a5d6	0.05289253
54	0x3e496664	0.19667965
55	0x3e0f5ca9	0.14000191
56	0x3e438332	0.19093016
57	0x3e18d659	0.14925517
58	0x3c30f1e6	0.010799861
59	0x3df9541f	0.12174248
60	0x3dabd295	0.08389775
61	0x3e00bc04	0.12571722
62	0x3e7488fb	0.23880379
63	0x3dd2150b	0.1025792
64	0x3d9c17c5	0.07621721
65	0x3b675240	0.0035296828
66	0x3d638579	0.05554721
67	0x3e57bf09	0.21068968
68	0x3e0f35d9	0.13985385
69	0x3dee100a	0.11624153
70	0x3de5b0c9	0.1121536
71	0xbd3fdf7e	-0.046843998
72	0x3e3c7c2f	0.18406747
73	0x3d5894d6	0.052876316
74	0x3d821950	0.06352484
75	0x3e1c1267	0.15241395
76	0x3d5357db	0.051597457
77	0x3bf7c32b	0.0075611076
78	0x3dd5ac70	0.104332805
79	0x3d2c9b4b	0.042140286
80	0x3e8cfe68	0.27537847
81	0x3e09b09a	0.13446274
82	0x3e86b3a5	0.26308933
83	0x3de190ae	0.110139236
84	0x3dc05a36	0.09392206
85	0x3ce7f45c	0.028314762
86	0x3c94f8ab	0.01818498
87	0x3e4c4ac5	0.19950397
88	0x3d85dca3	0.06536224
89	0x3e2cee28	0.16887724
90	0x3dccb1cb	0.09994849
91	0x3de92b21	0.11385179
92	0xbbcc9004	-0.006242754
93	0x3e39161a	0.18074837
94	0x3e45fd6f	0.19334958
95	0x3bff66d3	0.00779424
96	0x3e33a3f0	0.17543006
97	0x3e0d5c22	0.13804677
98	0x3ddd8d55	0.108179726
99	0x3d914df7	0.07094949
100	0xbcf47f62	-0.029845897
101	0x3d2c34fd	0.04204272
102	0x3e6154d2	0.22005013
103	0x3e42d258	0.19025552
104	0x3c2c6f90	0.010524645
105	0xbb827341	-0.0039810245
106	0xbbd80a58	-0.00659303
107	0x3e0420c0	0.12903118
108	0x3de64e64	0.112454206
109	0xbc32c5f3	-0.010911453
110	0x3abea70c	0.0014545633
111	0x3e2f49c6	0.17117986
112	0x3d401001	0.046890263
113	0x3e433b20	0.19065523
114	0x3c2013a2	0.009770306
115	0x3db87306	0.09006314
116	0x3e12a4f6	0.1432074
117	0x3e2b3cde	0.16722438
118	0x3df4d774	0.11955157
119	0x3dfb91f5	0.122836985
120	0x3dc78e43	0.09743931
121	0x3d914177	0.070925646
122	0x3e0a83ae	0.13526794
123	0x3d8b9f46	0.06817488
124	0x3d85e467	0.06537705
125	0x3c7349e7	0.014849163
126	0xbae430be	-0.0017409546
127	0x3e376ce0	0.17912626
128	0xbcfeb926	-0.031094145
129	0xbd0ccbee	-0.03437417
130	0x3c62957d	0.013829586
131	0x38a76d73	7.983567e-05
132	0x3cfffb3e	0.031247731
133	0x3d7ddd09	0.061978374
134	0xbb932dcd	-0.004491544
135	0xbd5fbbe0	-0.05462253
136	0xbe06a868	-0.1315018
137	0xbe8f9cbc	-0.28049266
138	0xbd53e4d3	-0.051731896
139	0xbca05186	-0.019570123
140	0xbe1c1d5d	-0.15245576
141	0x3b86a1f3	0.0041086613
142	0xbdeaa03f	-0.11456346
143	0xbe1ff9d7	-0.1562265
144	0xbd6bfbd8	-0.057613224
145	0x3e01f7ae	0.12692139
146	0x3d244872	0.04010815
147	0x3d7ab038	0.06120321
148	0xbd1b7417	-0.03795251
149	0xbe337ec0	-0.1752882
150	0x3d6adb3d	0.05733799
151	0xbe178190	-0.14795518
152	0x3c3d7f0f	0.011565938
153	0xbcffd7d2	-0.03123084
154	0x3a8b347a	0.0010620498
155	0x3c6674c4	0.014065925
156	0xbd80bcf6	-0.062860414
157	0xbdb38dcd	-0.08767281
158	0xbe70ff77	-0.23534952
159	0xbe23ea83	-0.16007428
160	0xbdac24e0	-0.08405471
161	0x3d001fb5	0.03128024
162	0x3c67d90b	0.014150868
163	0x3c99bdf5	0.018767336
164	0xbc00bcb2	-0.0078574885
165	0xbce5b8ed	-0.028042281
166	0xbdfe715f	-0.124239676
167	0xbdd968b3	-0.10615673
168	0x3d545b84	0.05184509
169	0xbda0bee5	-0.0784891
170	0xbcc55c0e	-0.024091747
171	0xbe17a4a6	-0.14808902
172	0x3dfbf497	0.12302511
173	0x3d6fed17	0.058575716
174	0xbd902f57	-0.07040279
175	0xbda0ad12	-0.078455105
176	0xbe84ef11	-0.25963643
177	0xbde320b5	-0.11090223
178	0xbe0937ee	-0.13400242
179	0x3b81e2c9	0.0039638025
180	0xbe0f3d44	-0.13988215
181	0xbe00cfe7	-0.12579308
182	0xbcb22305	-0.021745214
183	0xbdf24b8a	-0.11830814
184	0x3c803e68	0.015654758
185	0xbdeb179f	-0.11479115
186	0xbdd8e1d5	-0.10589949
187	0xbe2bef2b	-0.16790454
188	0xbe27ab34	-0.16373903
189	0xbd963a2c	-0.07335314
190	0xbe8e7233	-0.27821502
191	0x3d5efb35	0.05443879
192	0xbd409c9c	-0.047024354
193	0x3b56ebe1	0.0032794403
194	0x3dc09dab	0.09405073
195	0xbd607155	-0.05479558
196	0xbdf641a7	-0.12024241
197	0xbdd890f9	-0.10574526
198	0xbd6a7256	-0.057237945
199	0x3b713344	0.0036804238
200	0xbcd255d2	-0.025675688
201	0xbd18df2d	-0.037322212
202	0xbd847558	-0.06467694
203	0x3b8fe248	0.0043909885
204	0x3cb529a3	0.02211458
205	0xbdba54f2	-0.09098233
206	0xbdd238df	-0.102647536
207	0xbddc7c84	-0.10765937
208	0x3d1172c9	0.03550986
209	0x3cd0c120	0.025482714
210	0xbde18822	-0.110122934
211	0xbe33af6c	-0.17547387
212	0xbda18ed5	-0.07888571
213	0x3d6f0f47	0.05836418
214	0xbd08169e	-0.033224694
215	0xbe314504	-0.17311484
216	0xbd822007	-0.06353765
217	0xbdc01280	-0.093785286
218	0xbdb6a91b	-0.08918973
219	0xbd055133	-0.03254814
220	0x3c64cea3	0.013965282
221	0x39c097ac	0.00036734098
222	0xbe2820cb	-0.1641876
223	0xbde15647	-0.11002784
224	0x39e55e2c	0.00043748447
225	0xbd49141b	-0.04909144
226	0xbd833be6	-0.06407909
227	0xbe056b4b	-0.1302921
228	0x3d6515b1	0.05592889
229	0xbda934a9	-0.08261997
230	0xbdfc9df9	-0.123348184
231	0xbd2d1765	-0.04225864
232	0x3ce8f9e5	0.028439471
233	0xbe785592	-0.24251392
234	0xbdb4b15b	-0.0882289
235	0xbe954fbf	-0.29162404
236	0xbdfb28db	-0.12263652
237	0xbdfe2667	-0.124096684
238	0xbd81fd43	-0.06347134
239	0xbe888014	-0.26660216
240	0xbe88f094	-0.26746047
241	0xbe11860a	-0.14211288
242	0xbdd371b5	-0.10324422
243	0xbdb61d9f	-0.088923685
244	0xbd267c57	-0.040645923
245	0xbe9a5135	-0.3014008
246	0xbbf4f313	-0.007475266
247	0xbe5dddf2	-0.21666697
248	0x3e2ded23	0.16984992
249	0xbe58199e	-0.21103522
250	0xbc2a4d9a	-0.010394478
251	0xbdae1467	-0.08499985
252	0x3de0567d	0.10953996
253	0x3d83ccea	0.06435569
254	0xbd973253	-0.073826455
255	0xbd630df7	-0.05543324

gru.bias_hh_l0 f4 [384]
0	0x3d8d7577	0.0690717
1	0x3e1271f8	0.14301288
2	0x3dbd8340	0.092535496
3	0x3e024a6f	0.12723707
4	0x3e029495	0.12751992
5	0xbcfa0904	-0.030521877
6	0xbcd50145	-0.026001582
7	0x3c93d296	0.018044751
8	0x3e094ac5	0.13407429
9	0x3e1a1d55	0.15050252
10	0x3d9bab16	0.076009914
11	0x3d555438	0.05208227
12	0x3dc66f6b	0.0968922
13	0x3e15881b	0.14602701
14	0x3e27b212	0.16376522
15	0x3e31f3bc	0.17378134
16	0x3d354701	0.044257168
17	0xbbc7289d	-0.0060778395
18	0x3d3a75ce	0.045522504
19	0x3d8fa690	0.07014191
20	0x3cb6a588	0.022295728
21	0x3db16094	0.08660999
22	0xbcba54ac	-0.022745453
23	0x3dc8cc79	0.09804625
24	0x3d8e6b08	0.06954008
25	0x3de0dd2e	0.10979687
26	0x3e148dbc	0.14507192
27	0x3dcaffcf	0.09912073
28	0x3e16a1f2	0.14710215
29	0x3dbf4028	0.09338409
30	0x3d0c61a6	0.034272812
31	0x3afb37d0	0.0019166414
32	0x3dd7fcef	0.1054629
33	0x3e1072b2	0.14106253
34	0x3d9b8218	0.07593173
35	0x3de9a78d	0.11408911
36	0x3dba18e0	0.09086776
37	0x3e009b01	0.1255913
38	0x3e1329ae	0.14371368
39	0x3d95a9c8	0.07307774
40	0x3dd8f5d6	0.105937645
41	0x3e2175f8	0.15767658
42	0x3d269638	0.040670604
43	0x3e0ae21a	0.13562813
44	0xbd4e3e79	-0.050352547
45	0x3cbf6d21	0.023367466
46	0x3d6e9b57	0.058253612
47	0x3cb9c359	0.022676157
48	0x3e038d06	0.12846765
49	0x3d9d04a3	0.076669
50	0x3e9535d9	0.29142645
51	0x3dfe74bb	0.12424608
52	0x3e22a8f5	0.15884764
53	0x3db409e7	0.08790951
54	0x3dc32b82	0.09529783
55	0x3e02a5f9	0.12758626
56	0x3e529a7c	0.20566744
57	0x3e0ad175	0.13556464
58	0xbc51af56	-0.012798151
59	0x3e553ffb	0.20825188
60	0x3e38e0f2	0.1805456
61	0x3d688eb1	0.056776706
62	0x3e1b1651	0.15145232
63	0x3e142c57	0.1447004
64	0x3c679339	0.014134222
65	0x3d086322	0.033297665
66	0xbbc9fefa	-0.006164429
67	0x3e41e6d1	0.18935706
68	0x3e2375f5	0.15962966
69	0x3ded6261	0.1159103
70	0x3de8b35d	0.11362336
71	0x3c8ffda9	0.01757701
72	0x3e3444d7	0.17604385
73	0xbc11b0d0	-0.008892253
74	0x3ca41d95	0.020033637
75	0x3d7a9663	0.061178576
76	0x3bc6a2ae	0.0060618734
77	0x3d9a22c0	0.07526159
78	0x3db8dbe0	0.09026313
79	0x3e0b2fe1	0.13592483
80	0x3e0723e4	0.13197285
81	0xbc1fd223	-0.00975469
82	0x3e6ab4b3	0.22920494
83	0x3e0c79c5	0.13718326
84	0x3dbf34f4	0.09336272
85	0xbb94f850	-0.0045462027
86	0x3d45ebc0	0.04832053
87	0x3e002a44	0.12516123
88	0x3dde6a18	0.108600795
89	0x3d58cb3b	0.05292819
90	0x3d84d58b	0.064860426
91	0x3d880358	0.06641263
92	0x3da0c3b5	0.07849828
93	0x3e171d41	0.14757253
94	0x3e496866	0.19668731
95	0x3e0cc275	0.13746054
96	0x3dd36e85	0.10323814
97	0x3de83432	0.113380805
98	0x3ccd9020	0.025093138
99	0x3e02b479	0.12764157
100	0xbcc5cd04	-0.02414561
101	0x3d4bde7e	0.049772732
102	0x3e3c3b14	0.18381912
103	0x3e24463e	0.1604242
104	0x3e00245d	0.12513871
105	0x3caf0e8d	0.021369243
106	0x38fbdd73	0.00012009861
107	0x3e052ee9	0.13006176
108	0x3d833b08	0.06407744
109	0xbc181e36	-0.009284547
110	0xbbc85d72	-0.006114655
111	0x3e342f7a	0.17596236
112	0xbce40f37	-0.027839286
113	0x3e16c064	0.14721829
114	0x3d741af7	0.05959603
115	0xbd0c4a1e	-0.03425037
116	0xbc15e337	-0.0091484105
117	0x3dd8daa9	0.10588581
118	0x3dd89639	0.10575528
119	0x3e7cd307	0.24689876
120	0x3b99a8b2	0.0046892995
121	0xbc1d305b	-0.009594048
122	0x3e269c1c	0.16270489
123	0x3e2aeba9	0.1669146
124	0x3d639716	0.05556401
125	0x3d265bdc	0.040614948
126	0xbc826245	-0.015916
127	0x3e83b1ef	0.2572169
128	0xbde40b9d	-0.111350276
129	0xbdbdf9c6	-0.09276156
130	0x3d118c3d	0.035534132
131	0xbddc77d9	-0.107650466
132	0x3d7f42ad	0.062319446
133	0xbd111c35	-0.03542729
134	0x3975c11a	0.00023436957
135	0xbc76d60b	-0.01506568
136	0xbde6f942	-0.11278011
137	0xbe11f66c	-0.14254159
138	0xbddcac52	-0.10775055
139	0xbc30e69c	-0.010797169
140	0xbd91f940	-0.07127619
141	0x3ca7276f	0.020404546
142	0xbd9b6693	-0.07587924
143	0xbd51ed41	-0.051251654
144	0xbb6c035e	-0.003601275
145	0x3dba041c	0.09082815
146	0xbd04aa37	-0.032388892
147	0x3cc14da9	0.023596602
148	0xbca7938b	-0.020456096
149	0xbe0fcf25	-0.14043863
150	0x3d52108a	0.051285304
151	0xbe88e206	-0.26734942
152	0xbe00f28f	-0.12592529
153	0x3d393ef1	0.04522604
154	0xbd8a54d5	-0.06754462
155	0x3ca58891	0.020206721
156	0x3cccadea	0.024985272
157	0xbe01c20c	-0.1267168
158	0xbe03a5cb	-0.12856214
159	0xbddb3cb2	-0.10704936
160	0xbd2a93e9	-0.041644964
161	0x3c582023	0.013191256
162	0x3ddd8d0f	0.108179204
163	0x3c9672c5	0.018365273
164	0x3ccd878a	0.025089044
165	0xbdaf3738	-0.08555454
166	0xbd76d7ae	-0.060264282
167	0xbd23b0d9	-0.039963577
168	0x3d0f4fb4	0.03498812
169	0x3d682f5a	0.056685783
170	0xbde3e1dc	-0.11127064
171	0xbe11875c	-0.14211792
172	0x3d7bb1e2	0.06144894
173	0x3d314df3	0.04328723
174	0xbdc18231	-0.0944866
175	0xbe1c7b5b	-0.15281431
176	0xbe8e1b0e	-0.27755016
177	0xbd195f72	-0.03744454
178	0xbde1ab92	-0.110190526
179	0xbd3b68af	-0.04575413
180	0xbddcc571	-0.107798465
181	0xbe057950	-0.13034558
182	0x3d54a8a5	0.051918644
183	0xbdc11008	-0.09426886
184	0xbda7c1ed	-0.08191285
185	0xbd973071	-0.07382286
186	0xbd443a84	-0.047907367
187	0xbd760b3d	-0.06006931
188	0xbd1ff319	-0.039050195
189	0x3d086a09	0.033304248
190	0xbed89d72	-0.4230762
191	0xbafbbf8b	-0.0019206865
192	0xbd52955c	-0.05141197
193	0xbda272d8	-0.07932061
194	0x3e033c05	0.12815864
195	0xbc93edd4	-0.018057741
196	0xbe1758f3	-0.14780025
197	0xbd02241e	-0.031772725
198	0xbdb3da60	-0.08781886
199	0xbd20aac3	-0.03922535
200	0xbb963392	-0.0045837844
201	0xbd88244f	-0.0664755
202	0xbd1bfd43	-0.038083326
203	0xbdd69d02	-0.104791656
204	0x3b78e5a7	0.003797868
205	0xbe100159	-0.14063014
206	0xbe4b219c	-0.1983704
207	0xbc6a142d	-0.014287037
208	0xbc70dcc3	-0.014701071
209	0xbc23bbbf	-0.009993493
210	0xbd95a838	-0.07307476
211	0xbd8385b3	-0.064219855
212	0xbd4d43da	-0.050113536
213	0x3c49bd2e	0.01231317
214	0x3d8fc5c7	0.07020145
215	0xbe946260	-0.28981304
216	0x3c5bcc57	0.013415418
217	0xbdc40d82	-0.09572889
218	0xbcabe270	-0.020981997
219	0xbc3a4c15	-0.011370678
220	0xbce92f11	-0.028464826
221	0xbd93d2cb	-0.0721794
222	0xbe087ff0	-0.13330054
223	0xbe129653	-0.14315157
224	0x392f650e	0.00016726946
225	0x3cf302ba	0.029664386
226	0xbdff1d2d	-0.12456737
227	0xbc8d818d	-0.017273689
228	0x3d2b6c8f	0.041851576
229	0xbb97daf8	-0.0046342574
230	0xbde6e2f7	-0.11273759
231	0xbd9ffcf1	-0.078119166
232	0xbd83786c	-0.06419453
233	0xbe1aa58e	-0.15102217
234	0xbdbd2180	-0.09234905
235	0xbe8e6beb	-0.2781671
236	0xbd29fd82	-0.04150153
237	0xbd6043ac	-0.054752037
238	0xbd1aa31c	-0.03775321
239	0xbe6641e8	-0.22486079
240	0xbe6a376a	-0.22872701
241	0xbe17c0d1	-0.14819647
242	0xbde7e96a	-0.11323817
243	0xbdab7f97	-0.08373945
244	0x3d2bc227	0.041933205
245	0xbe2ad69d	-0.16683431
246	0x3dec11f3	0.11526861
247	0xbe8dee15	-0.27720705
248	0x3d0a3b10	0.033747733
249	0xbe3d722b	-0.18500583
250	0x3cf45fe9	0.02983089
251	0xbe2660d0	-0.16247869
252	0x3e0223af	0.12708925
253	0xbca55097	-0.02018003
254	0xbda56d77	-0.080775194
255	0xbd9f3e92	-0.07775606

fc_out.weight f4 [2, 128]
0	0x3e56f3f7	0.20991503
1	0x3e54eb92	0.20792988
2	0x3ea8cb12	0.3296743
3	0x3d7d8d97	0.06190261
4	0x3e1794d2	0.14802864
5	0x3d9bfc3a	0.07616468
6	0x3e447a68	0.1918732
7	0x3f16e6df	0.5894603
8	0x3d8731d9	0.066013046
9	0x3e564f25	0.20928629
10	0xbdeaeea9	-0.11471302
11	0x3f1e725f	0.61893266
12	0xbe844a50	-0.25837946
13	0x3e244713	0.16042738
14	0x3e38551f	0.18001221
15	0xbeb68edd	-0.3565587
16	0xbda75c39	-0.08171887
17	0x3e25416c	0.16138238
18	0x3e0a229f	0.1348977
19	0xbeadc316	-0.339379
20	0x3c91b5f6	0.017786961
21	0x3e5775f7	0.21041094
22	0x3dfa1ae8	0.12212163
23	0xbe9e9f41	-0.30980876
24	0x3e84656f	0.25858638
25	0x3da64cda	0.08120127
26	0xbdce1df7	-0.10064309
27	0xbcec4eb9	-0.028846132
28	0x3e5128b5	0.20425685
29	0x3e43dcc1	0.1912718
30	0x3e9f32df	0.310935
31	0xbe6c87e4	-0.23098713
32	0xbe0687dc	-0.13137764
33	0xbcc4565b	-0.023966959
34	0xbec2df99	-0.38061216
35	0x3eae0ede	0.33995718
36	0xbd7f052f	-0.062260803
37	0x3e46b17e	0.19403645
38	0xbdc04924	-0.093889505
39	0x3e3de750	0.1854527
40	0xbe9f7255	-0.31141916
41	0x3e06fb33	0.13181762
42	0x3de58974	0.11207858
43	0xbd518e04	-0.051160827
44	0x3d096f2a	0.03355328
45	0x3e8a363a	0.26994497
46	0x3e6e09b3	0.23245887
47	0xbda62550	-0.081125855
48	0x3e0c7bd1	0.13719107
49	0xbd1b3955	-0.037896473
50	0xbe540056	-0.20703253
51	0xbea5e921	-0.32404426
52	0x3bccce07	0.0062501463
53	0xbe324f2e	-0.17413017
54	0xbdfb947f	-0.12284183
55	0xbe148d36	-0.14506993
56	0xbe874a9e	-0.26424116
57	0xbd349475	-0.044086892
58	0x3e398422	0.18116811
59	0x3dfa3ec7	0.12219005
60	0xbe5cc7a6	-0.21560535
61	0xbe9952e9	-0.29946068
62	0xbe5910b7	-0.21197782
63	0xbd668889	-0.056282554
64	0x3e3bae0a	0.1832811
65	0xbde68d35	-0.11257402
66	0xbdc0c10d	-0.094118215
67	0x3dd8c895	0.10585133
68	0x3e42df60	0.19030523
69	0x3e14e5b0	0.14540744
70	0x3e110dd6	0.14165434
71	0xbe635d9b	-0.22203676
72	0x3df0a43f	0.117500775
73	0xbd2793ce	-0.040912442
74	0x3a755ed1	0.0009360137
75	0xbe2e641e	-0.17030379
76	0x3e012c1c	0.12614483
77	0x3e539b16	0.2066463
78	0x3eadcfc3	0.33947572
79	0x3df2fc76	0.11864559
80	0x3dab4d74	0.083643824
81	0xbddadb7d	-0.10686395
82	0xbe908b6e	-0.28231376
83	0x3e0c5feb	0.13708465
84	0xbe7a7fc5	-0.24462803
85	0x3c1e1226	0.009647882
86	0x3e35b451	0.17744567
87	0x3d8caee6	0.06869297
88	0x3ea4bcea	0.3217538
89	0x3b32b1ed	0.0027266697
90	0x3d991bc6	0.074760005
91	0xbe4f29af	-0.20230745
92	0x3db5ac9f	0.088708155
93	0x3e1e4a50	0.15458035
94	0x3e87e2a1	0.26540092
95	0x3dbcf206	0.0922585
96	0x3dde5d45	0.108576335
97	0x3e16d086	0.14727983
98	0x3dfa5f44	0.12225202
99	0xbe351314	-0.17683059
100	0xbea36a25	-0.3191692
101	0xbe71af67	-0.23602067
102	0x3e2edf47	0.17077361
103	0xbe05ad57	-0.13054405
104	0xbc7236c1	-0.014783562
105	0xbe850acd	-0.25984803
106	0x3dfccc26	0.12343626
107	0x3ef5466e	0.47905296
108	0x3d98120d	0.07425318
109	0x3e98698d	0.2976803
110	0xbd88de8b	-0.06683072
111	0xbdecbe0a	-0.115596846
112	0x3de45a45	0.1115003
113	0xbdc2ff34	-0.095213324
114	0xbeafd033	-0.3433853
115	0xbdb380d2	-0.08764805
116	0xbc55d2aa	-0.0130507145
117	0x3e522f36	0.20525822
118	0xbe4cda40	-0.20005131
119	0xbe17146b	-0.14753883
120	0xbdae0e9f	-0.084988825
121	0xbefacbce	-0.48983616
122	0xbdba48c2	-0.09095909
123	0xbe289c93	-0.16465978
124	0x3e9663c9	0.29373005
125	0xbe23459b	-0.15944521
126	0xbde09958	-0.10966748
127	0xbd4f7718	-0.050650686
128	0xbe506ef0	-0.2035482
129	0xbd165290	-0.03669983
130	0x3da502a7	0.080571465
131	0xbcd7ff14	-0.026366748
132	0xbd1525fa	-0.03641317
133	0xbd81f26f	-0.06345069
134	0x3da73db8	0.08166069
135	0xbe77a327	-0.24183331
136	0xbd598d52	-0.05311329
137	0x3ed07849	0.4071677
138	0x3dde77a4	0.108626634
139	0x3d2325e0	0.039831042
140	0xbdf66615	-0.12031189
141	0xbd95c977	-0.07313817
142	0xbde65d83	-0.11248305
143	0xb6278360	-2.496141e-06
144	0x3c6090fb	0.013706441
145	0xbe08b684	-0.13350874
146	0x3d99e260	0.07513881
147	0xbe0fb3f6	-0.14033493
148	0xbd3faddb	-0.04679666
149	0xbe0af369	-0.13569416
150	0x3e72ed65	0.23723371
151	0x3ec391cd	0.38197175
152	0xbda8c0bb	-0.082398854
153	0x3e0806ad	0.13283797
154	0xbde03e2f	-0.109493606
155	0xbceb0d80	-0.02869296
156	0x3e0bda7f	0.13657568
157	0x3ddbe460	0.107369184
158	0x3e383b6c	0.17991418
159	0xbe461c60	-0.19346762
160	0xbcc352b3	-0.023843145
161	0xbd6d89ae	-0.05799263
162	0xbdc4e3ee	-0.09613787
163	0xbe305e33	-0.17223434
164	0xbd070c18	-0.032970518
165	0x3e04e9d8	0.1297983
166	0xbd9d624a	-0.07684763
167	0x3d0ed7da	0.03487382
168	0x3e1796bb	0.14803593
169	0xbd327169	-0.043565188
170	0x3d513265	0.05107345
171	0xbdf711c5	-0.12063936
172	0xbd39ba77	-0.045343842
173	0xbe2cd1a2	-0.16876844
174	0xbd16ec7f	-0.036846634
175	0xbe89e312	-0.26931053
176	0xbea5f8aa	-0.32416278
177	0xbda47601	-0.0803032
178	0xbe9d630b	-0.30739626
179	0xbe97d96a	-0.2965806
180	0xbda2fa19	-0.079578586
181	0xbd2c3993	-0.042047095
182	0x3cee9ee2	0.029128496
183	0x3d643b8f	0.055720862
184	0x3e33419c	0.17505497
185	0xbe85f5eb	-0.26164183
186	0x3eb41af2	0.35176808
187	0x3e0f4f92	0.13995197
188	0xbcb4edcf	-0.022086052
189	0xbc4cbdb8	-0.012496404
190	0xbf37b7f4	-0.71765065
191	0xbdc479b1	-0.09593523
192	0xbd55f4cb	-0.052235406
193	0xbdadffde	-0.084960684
194	0x3b47678d	0.0030426711
195	0xbd0086be	-0.0313785
196	0xbd031a6a	-0.032007612
197	0x3efaac47	0.48959562
198	0x3e45a44b	0.19300954
199	0x3e0365ec	0.12831849
200	0xbcd80898	-0.026371285
201	0xbe64e9fb	-0.22354881
202	0x3e8efb08	0.27925897
203	0xbc82fa6b	-0.01598855
204	0xbe2dfffe	-0.16992185
205	0xbc00a4bd	-0.007851777
206	0x3e4f259d	0.20229192
207	0xbbdf62e9	-0.006817211
208	0xbdf3d5e4	-0.11906031
209	0xbdfe447d	-0.12415407
210	0xbdabcf5e	-0.083891615
211	0xbe895167	-0.26819918
212	0x3e076b2f	0.13224481
213	0x3d4ae56b	0.049535196
214	0x3ecbb188	0.39783883
215	0x3ebdf90d	0.37104073
216	0xbdccb90b	-0.09996232
217	0x3e56c9af	0.20975374
218	0xbd929bb8	-0.07158607
219	0x3e018ad2	0.12650612
220	0xbcaad7cf	-0.020854859
221	0xbcf02b89	-0.029317634
222	0xbdc22dab	-0.09481367
223	0x3e43ed75	0.19133551
224	0xbc7e1ac3	-0.01550931
225	0x3d115c0f	0.035488185
226	0xbdd44ff5	-0.10366813
227	0x3cb02f3c	0.021506898
228	0x3d6b6ddd	0.05747782
229	0x3e195575	0.14974006
230	0xbd8a2b75	-0.0674657
231	0x3ecfdf4e	0.40600055
232	0xbd861c11	-0.06548322
233	0x3e9785f9	0.295944
234	0xbe492490	-0.19642854
235	0x3e75512d	0.23956747
236	0x3e3c7968	0.18405688
237	0xbd17d5bb	-0.037069064
238	0xbd914cb2	-0.070947066
239	0xbe89481b	-0.26812825
240	0xbec5d2fe	-0.38637537
241	0xbe9d3246	-0.30702418
242	0xbd9080e9	-0.07055838
243	0xbdb0f604	-0.08640674
244	0x3d8c8dc9	0.06862981
245	0x3f032999	0.5123535
246	0xbdab4680	-0.08363056
247	0xbf34a9f0	-0.70571804
248	0x3df9f175	0.122042574
249	0xbdb500cb	-0.08838042
250	0xbd9cc881	-0.076554306
251	0xbddaedb8	-0.106898725
252	0x3b5a4380	0.0033304393
253	0xbc8ec146	-0.017426144
254	0x3cc9f685	0.024653682
255	0x3ef1cc02	0.47225958

fc_out.bias f4 [2]
0	0xbc04e34c	-0.008110832
1	0xbdf12772	-0.11775102
